models/pytorch_multi_beer_style.pt (torch, 16799 bytes, 4 tensors)

weight f4 [32, 6]
0	0xc1c23a7b	-24.278555
1	0x419b0d93	19.381628
2	0x415362e2	13.211641
3	0xc0b75d02	-5.7301035
4	0x4086feec	4.2186184
5	0x431f65bf	159.39745
6	0x4157c816	13.486349
7	0x4203f284	32.98683
8	0x41ce89d7	25.817305
9	0x421f6117	39.844814
10	0xc22e5fa2	-43.59339
11	0x431e9bca	158.60855
12	0xc1d9f8e2	-27.246525
13	0x3f9bf897	1.2185239
14	0xc1cf3fff	-25.906248
15	0xc0cf8628	-6.4851265
16	0xc1afa683	-21.956305
17	0xc295d627	-74.91827
18	0x40cb2266	6.347949
19	0x428e7963	71.23708
20	0x4294ccf4	74.4003
21	0x41730f09	15.191171
22	0x41a6415c	20.781914
23	0x430349b4	131.2879
24	0xbf4f5921	-0.80995375
25	0xbe780401	-0.24220277
26	0x3e8a9f3d	0.27074614
27	0x3e5ed196	0.21759638
28	0xbe0bfd7f	-0.1367092
29	0xbed5c707	-0.41753408
30	0x411df0cd	9.871289
31	0x3f1afd06	0.60542333
32	0xc1384cc3	-11.518741
33	0x3ffd6d27	1.9798936
34	0xbf1bb1dd	-0.6081827
35	0xc21fcaf5	-39.9482
36	0xc1b3565f	-22.417173
37	0x405fb727	3.4955537
38	0x427ffab7	63.99484
39	0x41d07fe7	26.062452
40	0x427c8c18	63.13681
41	0xc2fd7e08	-126.746155
42	0xc08c052b	-4.375631
43	0x41a05162	20.039738
44	0x42517287	52.361843
45	0x4263c7c6	56.94509
46	0x4272c2d8	60.690277
47	0xc2ce9a82	-103.30177
48	0x4191b0fe	18.211422
49	0x40c54eea	6.165883
50	0x41796270	15.586533
51	0xc177502b	-15.457072
52	0x417d26fd	15.822019
53	0xc2180bde	-38.01159
54	0xc122dc65	-10.178807
55	0xc09df7b9	-4.9364896
56	0x416da491	14.852677
57	0xc0daf2e4	-6.8421497
58	0x413fe6a5	11.99381
59	0xc19d7739	-19.683214
60	0x416eb4de	14.919157
61	0x416664d3	14.399615
62	0xc1b3977a	-22.448963
63	0x414d98cc	12.849804
64	0xc0326243	-2.7872474
65	0x43407db6	192.49106
66	0xc1fd3b84	-31.65406
67	0xc1a630e8	-20.77388
68	0xc0ed8f9e	-7.4237814
69	0x41b023f5	22.017557
70	0x42314791	44.31989
71	0xc303a8f8	-131.66003
72	0x407f977c	3.9936209
73	0xc1bcfeb0	-23.62436
74	0xc0e339d5	-7.1008096
75	0x41b5189b	22.637014
76	0x41d5d49c	26.728813
77	0xc29f183d	-79.54734
78	0xc0d065ce	-6.5124273
79	0xc1415a8a	-12.084604
80	0x406aeb09	3.6705954
81	0x41e6ec61	28.86542
82	0x3e140735	0.14455874
83	0x4352199b	210.10002
84	0xc2118dfe	-36.388664
85	0x3f5e4ad6	0.8683294
86	0xc10e349b	-8.887843
87	0xc209e98a	-34.478065
88	0x4193f92b	18.496664
89	0xc303e540	-131.89551
90	0x40a8afcb	5.271459
91	0xc0c9d1ee	-6.306876
92	0xc1ad74b1	-21.681978
93	0x4286e7bc	67.45261
94	0xc17302b8	-15.188164
95	0x42c47fe8	98.24982
96	0xc0107a9e	-2.257484
97	0x41dbfc54	27.498207
98	0xc1256498	-10.337059
99	0x40e97ad6	7.2962446
100	0x4245f961	49.493534
101	0x433d7cd3	189.4876
102	0xc1efb966	-29.965527
103	0xc22960dd	-42.344593
104	0x4273e330	60.971863
105	0xc1eb48bf	-29.41052
106	0xc1ad0ce1	-21.631289
107	0xc2e26b30	-113.20935
108	0xc1bf9755	-23.948893
109	0xc2237f18	-40.874115
110	0x41a754d7	20.916426
111	0xc0b427e2	-5.6298685
112	0x41c6cc77	24.849836
113	0xc2e91ad3	-116.55239
114	0x41decf8d	27.851343
115	0x402f1695	2.7357533
116	0x412555c5	10.33344
117	0x4092ed0f	4.591438
118	0x4097f85f	4.7490687
119	0x4336c68b	182.77556
120	0xbf253618	-0.64535666
121	0xc1aa618c	-21.29763
122	0x4162211e	14.133085
123	0xc26ee570	-59.72406
124	0xc27c6529	-63.09879
125	0xc291e6a7	-72.95049
126	0x41d40e73	26.507055
127	0xbfe7a9b1	-1.8098661
128	0x425d3cfd	55.30956
129	0xc21f2ba3	-39.792614
130	0xc1edff88	-29.749771
131	0xc2d819d8	-108.050476
132	0x40fdda28	7.9328804
133	0x413a02a9	11.625649
134	0x41428a09	12.1587
135	0x41b45ca2	22.54523
136	0x4237f0a0	45.984985
137	0xc2e24baa	-113.14778
138	0x41316be8	11.088844
139	0x425054f7	52.082973
140	0xc1887d6b	-17.06124
141	0x42aa6f07	85.21685
142	0x4297d679	75.91889
143	0xc1e2dab5	-28.35679
144	0xc0339de9	-2.806513
145	0xbe1ca69d	-0.15297933
146	0xc15691e9	-13.410623
147	0x40f18253	7.5471587
148	0xc1a14cb8	-20.16246
149	0xc30909ac	-137.03778
150	0x41d81857	27.011885
151	0xc2a6d600	-83.41797
152	0x41e61494	28.760048
153	0xc26132ae	-56.29949
154	0xc1c180c6	-24.187878
155	0xc2d6564a	-107.16853
156	0xc2445e46	-49.092064
157	0x42219749	40.39774
158	0x41229fc0	10.164001
159	0x41dc3163	27.524115
160	0x42470152	49.75129
161	0xc2c773c7	-99.72613
162	0x41b5981b	22.69927
163	0x4145e3b4	12.368092
164	0x4160abbd	14.041928
165	0x4065a523	3.5882041
166	0x418c3005	17.523447
167	0x43367eb1	182.49489
168	0xc1799af5	-15.600331
169	0xc0e1951a	-7.049451
170	0xc23225b7	-44.53683
171	0x4229f18c	42.485886
172	0x41b5e49c	22.736626
173	0xc2a3533d	-81.662575
174	0xc22a8b9a	-42.63633
175	0xc1470605	-12.43897
176	0x40ad52fa	5.416379
177	0xc160a60c	-14.040539
178	0x4226bedd	41.68639
179	0xc314320f	-148.19554
180	0xc1dde5ae	-27.737148
181	0x417fa5e9	15.978005
182	0xc167ff8f	-14.499892
183	0x42288c2d	42.13689
184	0x41626821	14.150422
185	0xc3019480	-129.58008
186	0xc16fa00f	-14.976577
187	0x3e9f0435	0.31057897
188	0xc15b0c84	-13.690556
189	0x3f890879	1.0705711
190	0x41d4cc44	26.59974
191	0xc1ae731e	-21.80621

bias f4 [32]
0	0xc14af44d	-12.684644
1	0xc0b268af	-5.5752788
2	0x42685d91	58.091373
3	0xc1ac68bf	-21.551146
4	0xc000c69c	-2.0121222
5	0xc21ab35b	-38.67515
6	0x42461f31	49.53046
7	0x42144114	37.063553
8	0xc1d2ef9b	-26.366995
9	0xc2045f3f	-33.093014
10	0x419e9308	19.821793
11	0x40b3fcb9	5.6246
12	0xc1807511	-16.057161
13	0xc08395d2	-4.1120386
14	0x4203fe56	32.998375
15	0x419840a5	19.031565
16	0xc0b6dd99	-5.7145505
17	0x423875ba	46.114967
18	0x40b771df	5.7326503
19	0xc0c67f9e	-6.2030783
20	0x41f54e00	30.663086
21	0x41d75887	26.918226
22	0x4283c606	65.886765
23	0x41aac8b6	21.348003
24	0x4243855e	48.88024
25	0x41ce0089	25.750261
26	0x415d0b2b	13.815227
27	0xc0a1e063	-5.058641
28	0x409de1b3	4.933801
29	0x411f73cd	9.965772
30	0x4264595d	57.08727
31	0xc2146122	-37.094856

weight f4 [104, 32]
0	0xc1b367ba	-22.425648
1	0xc20f0cb9	-35.762424
2	0x42441b3d	49.0266
3	0xc1ce044c	-25.752098
4	0xbe802f30	-0.25036
5	0x3eb0cf27	0.34533045
6	0x428a8b38	69.27191
7	0x426c1d80	59.02881
8	0x419c741a	19.55669
9	0xc085edc1	-4.1852727
10	0xc216c1b9	-37.689182
11	0x418a1615	17.260782
12	0x418f9f95	17.95292
13	0xc1614719	-14.079858
14	0x422ba060	42.906616
15	0xc1a18685	-20.190683
16	0xc2076d8f	-33.85699
17	0x42406a75	48.103962
18	0x4197eedb	18.991629
19	0xc1832b08	-16.396011
20	0x42250f53	41.264965
21	0x4278ca07	62.197292
22	0x42b7494f	91.64318
23	0x428c1c8d	70.05576
24	0x42206b58	40.104828
25	0x420798bc	33.899155
26	0x4226783e	41.617424
27	0xc243fdc7	-48.99783
28	0x420d706d	35.35979
29	0x41bbb8f8	23.465317
30	0x42a8bc21	84.36744
31	0x40de0448	6.9380226
32	0x42017b62	32.37049
33	0x4282dc7b	65.430626
34	0xc1f07a99	-30.059862
35	0x41ed477f	29.65991
36	0xbfbb91ce	-1.4653871
37	0x404f2a14	3.2369432
38	0xc2508f76	-52.1401
39	0xc21f65ba	-39.849342
40	0xc106801c	-8.406277
41	0xbf4a8ecc	-0.7912414
42	0x427250c8	60.578888
43	0xc15325a7	-13.196692
44	0x4007f9cc	2.1246214
45	0x41ea71c2	29.305546
46	0xc216ca72	-37.6977
47	0x41df53c9	27.91591
48	0x42437c83	48.871593
49	0xc21018dc	-36.024277
50	0xc14a91ca	-12.660593
51	0x4205da9b	33.46348
52	0xc1b5f39a	-22.743946
53	0xc21c7e31	-39.123234
54	0xc2ae2278	-87.06732
55	0xc224bc6a	-41.184
56	0xc1f25189	-30.289812
57	0xc1817e05	-16.186533
58	0xc1df15e1	-27.885683
59	0x424f3d8c	51.810104
60	0xc1f3ce01	-30.475588
61	0xc1d5df21	-26.73395
62	0xc296ed4a	-75.463455
63	0x40410c15	3.0163624
64	0xbf060d2f	-0.52363867
65	0x3ec64eb5	0.38731924
66	0xbfc647cd	-1.5490662
67	0xbff874d8	-1.9410658
68	0x3f1c787d	0.6112135
69	0x3e016099	0.12634505
70	0x3e1f866e	0.15578625
71	0xc01eab1e	-2.4791942
72	0xbfe220ef	-1.76663
73	0xc06ce51d	-3.701484
74	0xbfa4449e	-1.283344
75	0xbf9e51a0	-1.236866
76	0xbfd8fadc	-1.6951556
77	0xbf92fa0e	-1.1482561
78	0xbefe98b6	-0.49725884
79	0xbdaf4525	-0.0855811
80	0xbf75f98a	-0.9608389
81	0xbecdc1c5	-0.40186897
82	0xbf0a2bad	-0.53972894
83	0xc02119db	-2.517203
84	0xc06d92e5	-3.7120907
85	0x40e8025d	7.2502885
86	0xbefee947	-0.4978735
87	0xc037c0fc	-2.8711538
88	0xbc87580a	-0.016521472
89	0xbf5de76c	-0.86681247
90	0x400ccefb	2.200133
91	0xc0224599	-2.535498
92	0x3fed635d	1.8545948
93	0xbfb41de4	-1.4071622
94	0xbfa54d42	-1.2914202
95	0xbe5240b9	-0.20532502
96	0xbe813814	-0.25238097
97	0xbeb81cef	-0.35959575
98	0x40253bb4	2.581769
99	0xbe430bbf	-0.1904745
100	0xbf9f919e	-1.2466314
101	0xbff8e76e	-1.9445627
102	0xbefd166e	-0.49431175
103	0xbf9c7d25	-1.2225691
104	0x3eb05a6f	0.34443995
105	0x401688b7	2.3520944
106	0xbfa3e96e	-1.2805612
107	0x4068664b	3.6312435
108	0xc0402df3	-3.0028045
109	0xbeb9dc4c	-0.36300886
110	0xc070b675	-3.7611363
111	0x40709305	3.7589734
112	0xbf1ead40	-0.6198311
113	0xc056d8b3	-3.3569763
114	0x3f33945c	0.70148253
115	0xbe406b29	-0.18790878
116	0xbf7d2e19	-0.98898464
117	0x3d4d634b	0.05014352
118	0xbfd86e55	-1.6908671
119	0xbfd58565	-1.6681334
120	0xbf144780	-0.579216
121	0x3f948afb	1.1604913
122	0x3da4d929	0.080492325
123	0xbfb830d3	-1.43899
124	0x4040050b	3.0003078
125	0x4032eda3	2.7957542
126	0x408a35c4	4.319063
127	0xbf591692	-0.84800065
128	0xc0ece612	-7.4030848
129	0x4099391e	4.7882223
130	0xc19beea6	-19.491528
131	0xc0c0fde3	-6.030992
132	0xbfacbeb2	-1.3495696
133	0x40cd16b9	6.409024
134	0x3edd75e1	0.43253997
135	0xc19ffbc2	-19.997929
136	0xc12df8e3	-10.873263
137	0xc0e33099	-7.0996823
138	0xc158b05b	-13.543056
139	0xc134f8dc	-11.310757
140	0xc18ce7a7	-17.613111
141	0xc0e5bfdc	-7.1796703
142	0xc18c5ad9	-17.54436
143	0xc08ff982	-4.4992075
144	0xc1097ce6	-8.592993
145	0x40d8e5fd	6.7780747
146	0xc1845e92	-16.546177
147	0x3f8baa28	1.0911303
148	0xc1928a49	-18.317522
149	0xc01e3f44	-2.4726114
150	0xc198b0ee	-19.086391
151	0xc0db3e0b	-6.8513236
152	0xc18a75c8	-17.30751
153	0xc12e9de1	-10.913545
154	0xc078da27	-3.888315
155	0xc0b0bc81	-5.5230107
156	0xc0ace703	-5.4031997
157	0x3fded5f0	1.7409039
158	0xc0a424c9	-5.1294904
159	0xc095c2fd	-4.6800523
160	0xc06d61f7	-3.7091043
161	0xc0ce3be8	-6.444813
162	0xc11c67e7	-9.775367
163	0x40c7c8b2	6.243249
164	0xbf201e3f	-0.6254615
165	0xbfe21aa9	-1.7664386
166	0xc0ccdae0	-6.401718
167	0xc04ae958	-3.1704922
168	0x40b78a07	5.735599
169	0x40ebc382	7.3676157
170	0xc040e51f	-3.0139844
171	0x403a5fce	2.9120975
172	0xc0ab993b	-5.362455
173	0xc16873d6	-14.52828
174	0x41134714	9.204853
175	0xc14d72f0	-12.840561
176	0xc13a377c	-11.638546
177	0xc160024e	-14.000563
178	0x3fc488ab	1.5354208
179	0xc12a2e1a	-10.636255
180	0x415513de	13.31735
181	0xc11e9a56	-9.91268
182	0xc1ad4041	-21.656374
183	0xc0ae0709	-5.438359
184	0xc172018f	-15.1253805
185	0xc138ccca	-11.549997
186	0x411128fd	9.072507
187	0x409c3e93	4.8826385
188	0x3f2f11fa	0.68386805
189	0xc0939e43	-4.613069
190	0xbfd9b2cb	-1.7007688
191	0x414da686	12.853155
192	0xbe6a69bb	-0.22891895
193	0xbf3b01ee	-0.7304982
194	0xbfc1c14b	-1.5137113
195	0xbfba838c	-1.4571395
196	0xbe9af88c	-0.3026775
197	0xbed9119a	-0.4239624
198	0xbf0eb964	-0.55751634
199	0xbf3bc9f3	-0.73355025
200	0xbf5ec50f	-0.8701944
201	0xbfb1a1d0	-1.3877506
202	0xbf7207ff	-0.9454345
203	0xbf780ef8	-0.9689784
204	0xbfa59faa	-1.2939351
205	0xbfb6ea56	-1.4290264
206	0xbfc1b3b7	-1.513297
207	0xbf0a6b52	-0.5407001
208	0xbe8e2dcb	-0.27769312
209	0xbe820b7b	-0.25399384
210	0xbf65d57a	-0.89778864
211	0xbfcd7b46	-1.6053245
212	0x3d6edbdb	0.05831514
213	0xbf16d6d6	-0.58921564
214	0xbfa67331	-1.3003904
215	0xbfefdf49	-1.8740016
216	0xbe069c3a	-0.13145533
217	0xbfe86330	-1.815527
218	0xbf86fc62	-1.0545771
219	0xbfb97310	-1.4488239
220	0xbfaddfb4	-1.3583894
221	0xbfb1982e	-1.3874567
222	0xbf9f9b0b	-1.246919
223	0x3e955738	0.29168105
224	0xbfb7e52d	-1.4366814
225	0xbfbb79ab	-1.4646505
226	0xbfa8a287	-1.31746
227	0xbf9ce543	-1.2257465
228	0xbff860b5	-1.9404513
229	0xbfdb447f	-1.7130278
230	0xbfc7b76d	-1.5602852
231	0xbdbedf97	-0.0931999
232	0xbec6cce0	-0.38828182
233	0xc014c6d2	-2.324635
234	0xbfb0ec4b	-1.3822111
235	0xbfe4a780	-1.7863617
236	0xbe6c2904	-0.23062521
237	0xbeb52dca	-0.35386497
238	0xbfa59f54	-1.2939248
239	0xbf9958a9	-1.1980182
240	0xbfba49f7	-1.4553822
241	0xbec3793f	-0.3817844
242	0x3e425208	0.18976605
243	0xc0014e2b	-2.020396
244	0xc00b75c3	-2.1790626
245	0xbfe912cd	-1.8208863
246	0xbfab1447	-1.3365563
247	0xbf5e07c3	-0.86730593
248	0xbf79ccd6	-0.9757818
249	0xbfb93436	-1.4469059
250	0xbf97e875	-1.1867815
251	0xbfd5c823	-1.6701702
252	0xbf863bc9	-1.0486995
253	0xc02bd34c	-2.6847715
254	0xbe4f26d7	-0.2022966
255	0xbf9e4eb5	-1.236777

bias f4 [104]
0	0xc08709d2	-4.219949
1	0x41847476	16.556866
2	0x408b0b13	4.345102
3	0x42279346	41.89382
4	0xc216156f	-37.52093
5	0x3f5bc73a	0.8585087
6	0xc010fdc3	-2.2654884
7	0xc01396c5	-2.3060772
8	0xc087b55f	-4.24089
9	0xbf7109d1	-0.94155604
10	0xbfdede34	-1.7411561
11	0xbfe7c5e1	-1.8107263
12	0xbf3145ad	-0.6924694
13	0xc0168be3	-2.352288
14	0xc01ff131	-2.4990962
15	0xc07e13d5	-3.9699605
16	0xc04c6735	-3.1937993
17	0xc19b5aef	-19.419401
18	0xc014e1f6	-2.3262916
19	0xc07edab3	-3.9820983
20	0xc04cb847	-3.1987474
21	0xc06c1586	-3.6888137
22	0xc0802f6c	-4.005789
23	0xc0227249	-2.5382254
24	0xc002ab9e	-2.0417247
25	0xc06e4948	-3.7232227
26	0xbfd45577	-1.6588582
27	0xc0252554	-2.5804033
28	0xbfb5ea8f	-1.4212207
29	0x4189e4b5	17.236673
30	0xbf8f8308	-1.1211863
31	0xc0303ab3	-2.7535827
32	0xc029fc65	-2.65603
33	0xc01fc001	-2.496094
34	0xc0658b0e	-3.5866122
35	0xc078814e	-3.8828921
36	0xbf8619e5	-1.0476652
37	0xc07c2ab0	-3.9401054
38	0xc05ab8f2	-3.4175382
39	0xc082e6f5	-4.090693
40	0xc0834187	-4.101749
41	0xc07216a6	-3.7826324
42	0xc081f2b7	-4.0608783
43	0xc0615e02	-3.5213628
44	0xc02d1439	-2.7043593
45	0xc0751548	-3.829424
46	0xc03fdf0b	-2.9979885
47	0xc081fdc3	-4.062227
48	0xc06134d4	-3.5188494
49	0xc083ae93	-4.1150603
50	0xc0488f48	-3.1337452
51	0xc061df1a	-3.529242
52	0xc0857d98	-4.1715813
53	0xc074f0ec	-3.8272047
54	0xc07d1fe2	-3.955071
55	0xc07ecd21	-3.98127
56	0xc07d033e	-3.953323
57	0xc07f894b	-3.9927547
58	0xc06d5304	-3.7081919
59	0xc084d5a9	-4.1510816
60	0xc072a7af	-3.7914846
61	0xc0842df6	-4.1306105
62	0xc06eedd9	-3.733267
63	0xc07d1a74	-3.9547396
64	0xc07b65e8	-3.9280949
65	0xc0799338	-3.8996105
66	0xc082359e	-4.069045
67	0xc0492426	-3.1428313
68	0xc0873e42	-4.22635
69	0xc080410e	-4.0079412
70	0xc07bf6be	-3.936935
71	0xc06a691f	-3.662666
72	0xc07aeb5d	-3.9206154
73	0xc0613bee	-3.5192828
74	0xc06ba2f0	-3.68182
75	0xc07bd6e2	-3.9349904
76	0xc08961a6	-4.29317
77	0xc02cbf29	-2.6991675
78	0xc16c154a	-14.755198
79	0xc07718f7	-3.8608987
80	0xc084e456	-4.152873
81	0xc07e491c	-3.9732122
82	0xc084fe01	-4.1560063
83	0xc085798c	-4.1710873
84	0xc082c11e	-4.086074
85	0xc08256d8	-4.073101
86	0xc08a567c	-4.323057
87	0xc07a6e6b	-3.9129894
88	0xc0824b95	-4.0717263
89	0xc08960fa	-4.293088
90	0xc07d15e0	-3.9544601
91	0xc084f90a	-4.1554003
92	0xc0724e2a	-3.7860208
93	0xc07c4b74	-3.9421053
94	0xc086b2f6	-4.209346
95	0xc0862762	-4.1923075
96	0xc07cb984	-3.948823
97	0xc07f1799	-3.9858153
98	0xc07fec94	-3.9988146
99	0xc08b388a	-4.3506517
100	0xc074bcb2	-3.824017
101	0xc08689f2	-4.204339
102	0xc07c9105	-3.9463513
103	0xc08a3ce4	-4.319933
